…
            "4",
            "5",
            "6",
            "7",
            "8",
            "9"
          ]
        }
      }
    },
    "shim": "keras.KerasServable",
    "language": "python",
    "dependencies": {
      "python": {
        "keras": "2.2.0",
        "h5py": "2.8.0"
      }
    },
    "type": "Keras Model",
    "model_type": "Deep NN",
    "model_summary": "_________________________________________________________________\nLayer (type)                 Output Shape              Param #   \n=================================================================\nconv2d_1 (Conv2D)            (None, 26, 26, 32)        320       \n_________________________________________________________________\nconv2d_2 (Conv2D)            (None, 24, 24, 64)        18496     \n_________________________________________________________________\nmax_pooling2d_1 (MaxPooling2 (None, 12, 12, 64)        0         \n_________________________________________________________________\ndropout_1 (Dropout)          (None, 12, 12, 64)        0         \n_________________________________________________________________\nflatten_1 (Flatten)          (None, 9216)              0         \n_________________________________________________________________\ndense_1 (Dense)              (None, 128)               1179776   \n_________________________________________________________________\ndropout_2 (Dropout)          (None, 128)               0         \n_________________________________________________________________\ndense_2 (Dense)              (None, 10)                1290      \n=================================================================\nTotal params: 1,199,882\nTrainable params: 1,199,882\nNon-trainable params: 0\n_________________________________________________________________\n"
  }
}