…
          "classes": [
            "Yes",
            "No"
          ]
        }
      }
    },
    "shim": "keras.KerasServable",
    "language": "python",
    "dependencies": {
      "python": {
        "keras": "2.2.0",
        "h5py": "2.8.0",
        "tensorflow": "1.8.0"
      }
    },
    "type": "Keras Model",
    "model_type": "Deep NN",
    "model_summary": "_________________________________________________________________\nLayer (type)                 Output Shape              Param #   \n=================================================================\nembedding_23 (Embedding)     (None, 226, 50)           2150      \n_________________________________________________________________\ndropout_58 (Dropout)         (None, 226, 50)           0         \n_________________________________________________________________\nconv1d_24 (Conv1D)           (None, 220, 500)          175500    \n_________________________________________________________________\nleaky_re_lu_44 (LeakyReLU)   (None, 220, 500)          0         \n_________________________________________________________________\nglobal_max_pooling1d_17 (Glo (None, 500)               0         \n_________________________________________________________________\ndense_41 (Dense)             (None, 250)               125250    \n_________________________________________________________________\ndropout_59 (Dropout)         (None, 250)               0         \n_________________________________________________________________\nleaky_re_lu_45 (LeakyReLU)   (None, 250)               0         \n_________________________________________________________________\ndense_42 (Dense)             (None, 1)                 251       \n_________________________________________________________________\nactivation_21 (Activation)   (None, 1)                 0         \n=================================================================\nTotal params: 303,151\nTrainable params: 303,151\nNon-trainable params: 0\n_________________________________________________________________\n"
  }
}