…
            "horse",
            "ship",
            "truck"
          ]
        }
      }
    },
    "shim": "keras.KerasServable",
    "language": "python",
    "dependencies": {
      "python": {
        "keras": "2.2.0",
        "h5py": "2.8.0",
        "tensorflow": "1.8.0"
      }
    },
    "type": "Keras Model",
    "model_type": "Deep NN",
    "model_summary": "_________________________________________________________________\nLayer (type)                 Output Shape              Param #   \n=================================================================\nconv2d_1 (Conv2D)            (None, 32, 32, 64)        1792      \n_________________________________________________________________\nactivation_1 (Activation)    (None, 32, 32, 64)        0         \n_________________________________________________________________\nbatch_normalization_1 (Batch (None, 32, 32, 64)        256       \n_________________________________________________________________\ndropout_1 (Dropout)          (None, 32, 32, 64)        0         \n_________________________________________________________________\nconv2d_2 (Conv2D)            (None, 32, 32, 64)        36928     \n_________________________________________________________________\nactivation_2 (Activation)    (None, 32, 32, 64)        0         \n_________________________________________________________________\nbatch_normalization_2 (Batch (None, 32, 32, 64)        256       \n_________________________________________________________________\nmax_pooling2d_1 (MaxPooling2 (None, 16, 16, 64)        0         \n_________________________________________________________________\nconv2d_3 (Conv2D)            (None, 16, 16, 128)       73856     \n_________________________________________________________________\nactivation_3 (Activation)    (None, 16, 16, 128)       0         \n_________________________________________________________________\nbatch_normalization_3 (Batch (None, 16, 16, 128)       512       \n_________________________________________________________________\ndropout_2 (Dropout)          (None, 16, 16, 128)       0         \n_________________________________________________________________\nconv2d_4 (Conv2D)            (None, 16, 16, 128)       147584    \n_________________________________________________________________\nactivation_4 (Activation)    (None, 16, 16, 128)       0         \n_________________________________________________________________\nbatch_normalization_4 (Batch (None, 16, 16, 128)       512       \n_________________________________________________________________\nmax_pooling2d_2 (MaxPooling2 (None, 8, 8, 128)         0         \n_________________________________________________________________\nconv2d_5 (Conv2D)            (None, 8, 8, 256)         295168    \n_________________________________________________________________\nactivation_5 (Activation)    (None, 8, 8, 256)         0         \n_________________________________________________________________\nbatch_normalization_5 (Batch (None, 8, 8, 256)         1024      \n_________________________________________________________________\ndropout_3 (Dropout)          (None, 8, 8, 256)         0         \n_________________________________________________________________\nconv2d_6 (Conv2D)            (None, 8, 8, 256)         590080    \n_________________________________________________________________\nactivation_6 (Activation)    (None, 8, 8, 256)         0         \n_________________________________________________________________\nbatch_normalization_6 (Batch (None, 8, 8, 256)         1024      \n_________________________________________________________________\ndropout_4 (Dropout)          (None, 8, 8, 256)         0         \n_________________________________________________________________\nconv2d_7 (Conv2D)            (None, 8, 8, 256)         590080    \n_________________________________________________________________\nactivation_7 (Activation)    (None, 8, 8, 256)         0         \n_________________________________________________________________\nbatch_normalization_7 (Batch (None, 8, 8, 256)         1024      \n_________________________________________________________________\nmax_pooling2d_3 (MaxPooling2 (None, 4, 4, 256)         0         \n_________________________________________________________________\nconv2d_8 (Conv2D)            (None, 4, 4, 512)         1180160   \n_________________________________________________________________\nactivation_8 (Activation)    (None, 4, 4, 512)         0         \n_________________________________________________________________\nbatch_normalization_8 (Batch (None, 4, 4, 512)         2048      \n_________________________________________________________________\ndropout_5 (Dropout)          (None, 4, 4, 512)         0         \n_________________________________________________________________\nconv2d_9 (Conv2D)            (None, 4, 4, 512)         2359808   \n_________________________________________________________________\nactivation_9 (Activation)    (None, 4, 4, 512)         0         \n_________________________________________________________________\nbatch_normalization_9 (Batch (None, 4, 4, 512)         2048      \n_________________________________________________________________\ndropout_6 (Dropout)          (None, 4, 4, 512)         0         \n_________________________________________________________________\nconv2d_10 (Conv2D)           (None, 4, 4, 512)         2359808   \n_________________________________________________________________\nactivation_10 (Activation)   (None, 4, 4, 512)         0         \n_________________________________________________________________\nbatch_normalization_10 (Batc (None, 4, 4, 512)         2048      \n_________________________________________________________________\nmax_pooling2d_4 (MaxPooling2 (None, 2, 2, 512)         0         \n_________________________________________________________________\nconv2d_11 (Conv2D)           (None, 2, 2, 512)         2359808   \n_________________________________________________________________\nactivation_11 (Activation)   (None, 2, 2, 512)         0         \n_________________________________________________________________\nbatch_normalization_11 (Batc (None, 2, 2, 512)         2048      \n_________________________________________________________________\ndropout_7 (Dropout)          (None, 2, 2, 512)         0         \n_________________________________________________________________\nconv2d_12 (Conv2D)           (None, 2, 2, 512)         2359808   \n_________________________________________________________________\nactivation_12 (Activation)   (None, 2, 2, 512)         0         \n_________________________________________________________________\nbatch_normalization_12 (Batc (None, 2, 2, 512)         2048      \n_________________________________________________________________\ndropout_8 (Dropout)          (None, 2, 2, 512)         0         \n_________________________________________________________________\nconv2d_13 (Conv2D)           (None, 2, 2, 512)         2359808   \n_________________________________________________________________\nactivation_13 (Activation)   (None, 2, 2, 512)         0         \n_________________________________________________________________\nbatch_normalization_13 (Batc (None, 2, 2, 512)         2048      \n_________________________________________________________________\nmax_pooling2d_5 (MaxPooling2 (None, 1, 1, 512)         0         \n_________________________________________________________________\ndropout_9 (Dropout)          (None, 1, 1, 512)         0         \n_________________________________________________________________\nflatten_1 (Flatten)          (None, 512)               0         \n_________________________________________________________________\ndense_1 (Dense)              (None, 512)               262656    \n_________________________________________________________________\nactivation_14 (Activation)   (None, 512)               0         \n_________________________________________________________________\nbatch_normalization_14 (Batc (None, 512)               2048      \n_________________________________________________________________\ndropout_10 (Dropout)         (None, 512)               0         \n_________________________________________________________________\ndense_2 (Dense)              (None, 10)                5130      \n_________________________________________________________________\nactivation_15 (Activation)   (None, 10)                0         \n=================================================================\nTotal params: 15,001,418\nTrainable params: 14,991,946\nNon-trainable params: 9,472\n_________________________________________________________________\n"
  }
}